snake-ai-pytorch-main/model/model.pth (torch, 17216 bytes, 4 tensors)

linear1.weight f4 [256, 11]
0	0xbddb09ac	-0.10695204
1	0x3ed19237	0.40931866
2	0xbe3e3059	-0.1857313
3	0x3ebb05e8	0.36527944
4	0xbd2fb136	-0.04289361
5	0xbdc5b890	-0.09654343
6	0xbf1fa926	-0.62367475
7	0x3bff2c13	0.0077872365
8	0xbe3e1f96	-0.18566737
9	0xbf27f1d2	-0.65603364
10	0xbe93373a	-0.28753072
11	0xbdf5accc	-0.11995849
12	0x3e0a9cd2	0.13536385
13	0xbd5550b0	-0.052078903
14	0x3e311d52	0.17296341
15	0x3e097ddc	0.13426918
16	0xbe5161e6	-0.20447502
17	0x3e0912c6	0.13386068
18	0xbe5ec927	-0.21756421
19	0xbdd530b8	-0.10409683
20	0xbd96bf3a	-0.07360692
21	0xbe4c8d85	-0.1997586
22	0xbda767e5	-0.08174113
23	0x3c50eb90	0.012751475
24	0xbda76683	-0.081738494
25	0xbd7ee346	-0.062228464
26	0xbe32fbba	-0.17478839
27	0x3ef820fe	0.4846267
28	0x3ef7777e	0.48333353
29	0x3d4a01fc	0.0493183
30	0x3e8ae451	0.27127317
31	0xbf00085b	-0.5001275
32	0xbeda550f	-0.4264302
33	0xbdc90a46	-0.09816413
34	0xbe54ba8f	-0.20774291
35	0xbc5036b8	-0.0127083585
36	0x3e89ad05	0.26889816
37	0xbe876126	-0.26441306
38	0x3e4bf013	0.199158
39	0xbe984973	-0.29743537
40	0xbbb04069	-0.005378772
41	0xbf0d3d98	-0.5517211
42	0x3d0a207a	0.03372238
43	0xbf012362	-0.50444615
44	0x3bd07d20	0.0063625723
45	0x3e9a0554	0.3008219
46	0x3c08bce8	0.00834582
47	0xbd7a1ab1	-0.06106061
48	0xbe3079a5	-0.17233904
49	0xbdc313f2	-0.09525289
50	0xbcd9541a	-0.02652936
51	0xbbe0e8b0	-0.006863676
52	0x3e3a16d9	0.18172778
53	0x3e022fff	0.12713622
54	0x3e48b84a	0.1960155
55	0x3e0b70be	0.13617226
56	0xbe07a39a	-0.13246003
57	0x3e745cb1	0.23863484
58	0xbe9bcb4c	-0.3042854
59	0xbe84dca4	-0.25949585
60	0xbe59acc2	-0.21257308
61	0x3d4b7893	0.049675535
62	0x3e8fa717	0.28057167
63	0x3e4da4cb	0.20082395
64	0x3e92aa10	0.28645372
65	0xbd67b9ac	-0.056573555
66	0xbe6620bd	-0.22473426
67	0xbc56a4b6	-0.013100794
68	0xbd6df23d	-0.058092345
69	0xbf02cd88	-0.51094866
70	0xbf282912	-0.6568767
71	0x3e7692a0	0.2407937
72	0x3e97a05d	0.29614535
73	0x3e900c50	0.28134394
74	0x3ef879f1	0.48530534
75	0xbede11d1	-0.43372968
76	0xbf0061d2	-0.5014926
77	0x3cdf2767	0.027240468
78	0x3eb7fa0d	0.3593296
79	0x3ecb1d5c	0.39670837
80	0xbe6f9efc	-0.23400491
81	0x3c3ea596	0.011636158
82	0xbe933f19	-0.28759077
83	0xbe456816	-0.19277987
84	0x3ecfa8c9	0.4055846
85	0x3e953c3a	0.29147512
86	0x3ee04695	0.4380385
87	0x3ea2bb2b	0.31783423
88	0x3e675d47	0.22594176
89	0xbc2d210c	-0.010566961
90	0x3ed6dacf	0.41963813
91	0xbe24eb12	-0.16105297
92	0xbb1c9b90	-0.0023896433
93	0xbe81b565	-0.25333706
94	0x3eb4b844	0.35296834
95	0x3e30b62d	0.17256995
96	0xbec30656	-0.3809077
97	0xbdb41181	-0.08792401
98	0xbeb3bcae	-0.3510489
99	0x3e846919	0.25861433
100	0x3e791b82	0.243269
101	0xbe81af77	-0.25329182
102	0x3e80085c	0.25006378
103	0xbe2183a1	-0.15772869
104	0xbea40b41	-0.32039836
105	0xbe87c700	-0.26519012
106	0xbe638ad1	-0.22220923
107	0x3ea68c54	0.32528937
108	0x3c24bc29	0.0100546265
109	0xbcef67ba	-0.029224265
110	0xbf03b92b	-0.5145442
111	0xbcbe702b	-0.023246845
112	0xbc9a11fe	-0.018807407
113	0x3f154e11	0.58322245
114	0x3e530404	0.20607
115	0x3eb3e4d3	0.35135517
116	0xbeaa98d2	-0.33319718
117	0xbef1950d	-0.4718403
118	0xbdfb0365	-0.12256507
119	0xbebcba9e	-0.36861128
120	0x3eebbff0	0.46044874
121	0x3e938f74	0.28820384
122	0x3e8087e6	0.25103682
123	0x3e4faae7	0.20280038
124	0xbea6e2b0	-0.32594824
125	0xbe18e2cd	-0.14930268
126	0xbec358d2	-0.38153702
127	0x3cb8605b	0.022506883
128	0xbde8d0bc	-0.11367938
129	0x3e485874	0.19564992
130	0xbe8c59bd	-0.27412215
131	0x3dfc75b5	0.12327138
132	0xbeb5b015	-0.35485902
133	0x3cd3b104	0.025841244
134	0x3eea4622	0.45756632
135	0xbe9d08da	-0.30670816
136	0x3c1f5010	0.009723678
137	0xbccb6a5b	-0.024830988
138	0x3c491555	0.012273152
139	0x3e3e996d	0.18613215
140	0xbd1a5b3a	-0.037684657
141	0x3e6dbe4e	0.23217127
142	0x3e4464cb	0.19179074
143	0x3e9981b9	0.29981783
144	0x3de19eb9	0.11016602
145	0x3e9e60f6	0.3093335
146	0x3ccaa153	0.024735129
147	0x3b986dba	0.0046517523
148	0xbe03b276	-0.12861046
149	0xbe867731	-0.2626281
150	0x3ea02f76	0.3128621
151	0x3ea97872	0.33099705
152	0x3e36ca77	0.17850672
153	0x3eb070be	0.34461015
154	0x3e92c25a	0.28663903
155	0x3e258aa0	0.16166162
156	0x3f0643e3	0.52447337
157	0xbe4290c6	-0.19000539
158	0xbc3f4537	-0.011674217
159	0x3c71a51f	0.014748841
160	0xbdb95353	-0.09049096
161	0x3c7ffcbb	0.0156242205
162	0xba192977	-0.00058426656
163	0x3eb893b6	0.36050195
164	0x3d6730bb	0.056442957
165	0xbec448c2	-0.3833676
166	0x3e1fca7d	0.15604587
167	0x3ea16591	0.31522802
168	0x3e76eb57	0.24113213
169	0xbdbb698c	-0.09150991
170	0xbeccc4e6	-0.39993972
171	0xbe43b600	-0.19112396
172	0x3ea9bfd7	0.33154175
173	0xbde052e8	-0.10953313
174	0xbd616f78	-0.055037946
175	0xbea1e1d1	-0.31617597
176	0x3ebbdbf7	0.36691257
177	0x3e97c65d	0.29643527
178	0x3c006b43	0.007838073
179	0xbd223a89	-0.039606605
180	0xbe11455f	-0.14186619
181	0xbde00677	-0.10938733
182	0xbdb81137	-0.089876585
183	0x3e89cd38	0.26914382
184	0x3ea8f083	0.32995996
185	0x3eb67474	0.35635722
186	0x3e87074b	0.26372752
187	0x3d9cd063	0.07656934
188	0xbea6a47d	-0.3254737
189	0xbce49485	-0.02790285
190	0x3e65ab3d	0.22428603
191	0xbed08578	-0.4072683
192	0xbed21561	-0.41031936
193	0x3f1be250	0.608922
194	0x3ea7bbf8	0.32760596
195	0xbe9e1b6b	-0.30880293
196	0xbf2fdc6a	-0.686957
197	0x3e13dfaa	0.1444079
198	0x3e08e6a8	0.13369238
199	0x3d842f59	0.06454343
200	0x3e2f6968	0.17130053
201	0xbea094f1	-0.31363633
202	0x3e97f1ea	0.29676753
203	0xbe326c34	-0.17424089
204	0xbdb7986a	-0.089646176
205	0xbf0a270a	-0.5396582
206	0xbeed5378	-0.46352744
207	0xbe90faa5	-0.28316227
208	0x3d37aa18	0.04483995
209	0x3eb410d4	0.3516909
210	0xbd9ebf92	-0.07751383
211	0xbe08c367	-0.1335579
212	0xbe3af3be	-0.18257043
213	0xbc90e400	-0.017686844
214	0xbd4d172c	-0.050070927
215	0xbe593c1b	-0.21214335
216	0x3ed75747	0.42058775
217	0x3e9d2744	0.3069402
218	0x3e9fdbe8	0.31222463
219	0x3edeef70	0.4354205
220	0x3bfa33e2	0.0076355794
221	0xbe9caded	-0.30601445
222	0x3d53ddc7	0.051725175
223	0x3ed915cb	0.4239944
224	0xbea94076	-0.33056992
225	0x3ea8c503	0.32962808
226	0xbe4916ff	-0.19637679
227	0xbe4c9f73	-0.199827
228	0x3ee089cc	0.4385513
229	0x3f076861	0.52893645
230	0xbe991df0	-0.29905653
231	0xbe9727f4	-0.2952267
232	0x3ef8b221	0.48573402
233	0xbdefc05d	-0.11706612
234	0xbd6d2241	-0.057893995
235	0xbd5de1b0	-0.05417031
236	0x3cbc7c7c	0.023008578
237	0xbcc32f17	-0.023826165
238	0xbd2d35f1	-0.04228777
239	0x3c6d375c	0.014478531
240	0xbb8b65f9	-0.0042540994
241	0x3d41148b	0.047138732
242	0xbda47e9c	-0.08031961
243	0x3ee0977c	0.43865573
244	0x3ed9a2bc	0.4250697
245	0x3d9043fa	0.070442155
246	0x3e172e4e	0.14763758
247	0x3de0bc06	0.109733626
248	0xbb59e7e9	-0.0033249801
249	0x3ed08018	0.40722728
250	0x3ebf1fa2	0.3732882
251	0x3ea1b095	0.31580034
252	0x3e9dc6ad	0.3081564
253	0xbd596cf9	-0.05308244
254	0x3b6f9e2a	0.003656278
255	0x3d82bf77	0.06384175

linear1.bias f4 [256]
0	0x3e9139a4	0.2836429
1	0xbe92912a	-0.28626376
2	0xbdf11189	-0.11770923
3	0x3e551b8a	0.20811287
4	0xbe077569	-0.13228382
5	0xbe2d4672	-0.16921404
6	0x3ddf7c92	0.10912432
7	0xbe5e8eaf	-0.21734117
8	0xbe01c70d	-0.12673588
9	0xbe918f84	-0.28429806
10	0xbe04216d	-0.12903376
11	0xbe6da936	-0.2320908
12	0x3e7aecd9	0.24504413
13	0xbe845576	-0.25846452
14	0xbe0cfb39	-0.13767709
15	0xbe6daf93	-0.23211507
16	0xbe61e965	-0.22061689
17	0x3eb19be9	0.34689263
18	0xbc698320	-0.014252454
19	0xbe9be520	-0.30448246
20	0xbe42cf0a	-0.19024292
21	0x3ed0f20b	0.40809664
22	0xbee0d3a3	-0.43911466
23	0xbe1352b9	-0.14387025
24	0xbe99f160	-0.30066967
25	0xbde40f16	-0.1113569
26	0xbe9d870f	-0.30767104
27	0xbdbf906f	-0.093537204
28	0xbbdcd6df	-0.006739482
29	0xbba414f5	-0.005007381
30	0xbe99d6f2	-0.30046803
31	0xbe33d37e	-0.17561147
32	0x3e010102	0.1259804
33	0x3d31361b	0.04326449
34	0xbe2d7dbe	-0.16942498
35	0xbe301c90	-0.17198396
36	0xbd957b93	-0.072989605
37	0xbed53f39	-0.41649798
38	0xbe14b92a	-0.1452376
39	0x3e5bf830	0.21481395
40	0x3cd194dd	0.025583679
41	0xbe1b4440	-0.15162754
42	0xbe032d51	-0.12810256
43	0xbdea9c83	-0.114556335
44	0x3f0f9b53	0.5609638
45	0xbe1c57c0	-0.15267849
46	0x3b579298	0.0032893773
47	0xbe5f5b51	-0.21812178
48	0x3de29e83	0.1106539
49	0xbe92404b	-0.28564677
50	0xbe58453c	-0.21120161
51	0x3d66e315	0.056368906
52	0x3dcdabd4	0.10042539
53	0x3c639097	0.013889453
54	0x3db9a8de	0.09065412
55	0xbe452c3a	-0.19255152
56	0xbc6c354d	-0.014417005
57	0x3db141c4	0.08655122
58	0x3e5bfb7d	0.21482654
59	0x3be17b9c	0.0068811905
60	0xbe3287b0	-0.17434573
61	0xbe2360d3	-0.15954904
62	0xbece075c	-0.4023999
63	0xbe44c8bd	-0.192172
64	0x3eec4c96	0.4615218
65	0x3dd2f27a	0.10300155
66	0xbe4469ce	-0.19180986
67	0xbd9da312	-0.07697119
68	0xbe1c4e4f	-0.15264247
69	0xbdea08be	-0.11427449
70	0xbe4d4fbb	-0.20049946
71	0x3eb7b0ca	0.35877067
72	0xbdb0dcf8	-0.086358964
73	0xbe0fa5ec	-0.14028138
74	0xbbbebdea	-0.0058209794
75	0x3f09e067	0.53858036
76	0x3d65d5e5	0.05611219
77	0xbdaed79e	-0.085372195
78	0xbe8ec64d	-0.27885666
79	0x3d9a9215	0.07547394
80	0xbe9dea53	-0.30842838
81	0xbd6ebee1	-0.058287505
82	0x3e19fa5e	0.15036914
83	0xbe3073aa	-0.17231622
84	0xbe8c4e11	-0.2740331
85	0xbe8bfe02	-0.2734223
86	0xbe9b60ba	-0.30347234
87	0xbe8600cb	-0.2617248
88	0xbe17cb18	-0.14823568
89	0xbe96db3f	-0.29464146
90	0xbde9ecf1	-0.11422146
91	0xbe596566	-0.21230087
92	0x3e33efc4	0.17571932
93	0xbe9640ac	-0.29346216
94	0xbe39a7cb	-0.18130414
95	0xbd23a6b5	-0.039953906
96	0xbe80cd12	-0.25156456
97	0x3ea28b20	0.3174677
98	0x3ec44f2b	0.3834165
99	0x3c0c1973	0.008550989
100	0xbe237168	-0.1596123
101	0xbe9fe17d	-0.3122672
102	0xbb27199a	-0.0025497437
103	0xbe6e41ce	-0.2326729
104	0x3e02a088	0.1275655
105	0xbe817ec0	-0.25292015
106	0x3e6b7e48	0.22997391
107	0xbe97a458	-0.29617572
108	0xbe65e53b	-0.22450726
109	0x3d76153c	0.060078844
110	0xbc757c34	-0.014983226
111	0x3f0e7331	0.5564452
112	0x3d4f7bff	0.05065536
113	0xbed75bcf	-0.42062232
114	0x3e0f03cb	0.1396629
115	0x3e1cb43a	0.15303126
116	0x3e1318b3	0.14364891
117	0x3ec58546	0.38578242
118	0xbdfdaea0	-0.12386823
119	0xbd98f69b	-0.07468911
120	0x3ee33e59	0.44383505
121	0x3d8fa249	0.07013375
122	0xbdc73c7b	-0.097283326
123	0x3dc1de39	0.09466214
124	0xbe2968f3	-0.16543941
125	0xbe8c27b3	-0.27374038
126	0xbe5623a3	-0.20912032
127	0xbe90511f	-0.2818689
128	0x3e1a01eb	0.15039794
129	0xbd5289f0	-0.05140108
130	0x3d33fc1c	0.043941602
131	0xbe0d2218	-0.13782537
132	0x3e4f75ff	0.20259856
133	0x3cebb62a	0.028773386
134	0xbe3271f7	-0.17426287
135	0xbe8538c0	-0.2601986
136	0xbe93ca0e	-0.28865093
137	0x3b96249e	0.004582002
138	0x3d0010bc	0.03126596
139	0xbd2be46f	-0.041965898
140	0x3dcbc7e9	0.09950239
141	0xbe2d257b	-0.16908829
142	0x3eca6413	0.39529476
143	0x3db8e1a6	0.09027414
144	0x3e4077a1	0.18795635
145	0xbe1d549a	-0.15364304
146	0x3ebeeac2	0.3728848
147	0xbe3ae45e	-0.18251178
148	0xbe0ec467	-0.13942109
149	0xbe9860bb	-0.297613
150	0xbe755c99	-0.23961104
151	0xbda36847	-0.07978874
152	0xbdfce631	-0.12348593
153	0xbbc9f18c	-0.006162828
154	0xbe079004	-0.13238531
155	0xbdf2c6df	-0.11854338
156	0x3e8506d0	0.2598176
157	0xbebee149	-0.37281254
158	0x3d1824a7	0.03714433
159	0xbea42f58	-0.3206737
160	0xbe6405b3	-0.22267799
161	0xbea284c6	-0.31741923
162	0x3d381156	0.044938408
163	0xbe7ae724	-0.24502236
164	0x3dbb8e5c	0.09158012
165	0x3e38236a	0.1798226
166	0xbdb53f7e	-0.08850001
167	0xbebc5d05	-0.36789718
168	0xbd73caa8	-0.05951944
169	0xbd79bfc7	-0.06097391
170	0x3e87617e	0.26441568
171	0x3ccf9ab1	0.025342317
172	0xbe4ec661	-0.20192863
173	0xbdff86fc	-0.12476918
174	0xbe21b438	-0.15791404
175	0xbdf515e9	-0.1196707
176	0x3d4d2389	0.050082717
177	0xbe0d0f97	-0.13775478
178	0x3e9cef92	0.30651528
179	0x3daa7a9d	0.08324168
180	0xbe622b8b	-0.22086923
181	0xbe8e58fe	-0.2780227
182	0xbd54ad4f	-0.051923092
183	0xbe295086	-0.16534624
184	0xbd0b98ff	-0.034081455
185	0xbe56c06b	-0.20971839
186	0x3ddbb552	0.107279435
187	0x3d06f54d	0.03294878
188	0x3d8fa095	0.070130505
189	0xbcfb79d2	-0.030697737
190	0x3e5e458b	0.21706216
191	0xbe55c4c7	-0.20875846
192	0xbe812d90	-0.25230074
193	0xbdb6288f	-0.08894455
194	0xbe0228d6	-0.1271089
195	0xbe3bbff9	-0.1833495
196	0x3eb810e3	0.35950384
197	0x3e2b72e7	0.1674305
198	0xbdc75b5b	-0.097342215
199	0xbea588d2	-0.32330948
200	0xbe1b6e60	-0.15178823
201	0xbdf0ba9a	-0.117543414
202	0xbbcd58de	-0.0062666973
203	0xbe509fed	-0.20373507
204	0x3e03595b	0.12827055
205	0x3e2547d0	0.16140676
206	0xbbaa81a9	-0.005203445
207	0xbda31cff	-0.07964515
208	0xbe029f90	-0.12756181
209	0xbad5b754	-0.0016305246
210	0x3d814b67	0.0631321
211	0xbe06c437	-0.13160788
212	0x3e475dae	0.1946933
213	0x3e3799c0	0.17929745
214	0xbe55710b	-0.20843904
215	0x3e0eb1ca	0.13935009
216	0xbcf90438	-0.03039752
217	0x3f107d25	0.56440955
218	0xbec082ce	-0.37599796
219	0x3e5571e4	0.20844227
220	0xbe5fd612	-0.21859005
221	0xbe10a1eb	-0.14124267
222	0xbe3694f5	-0.1783026
223	0xbd109257	-0.03529581
224	0xbe6181d1	-0.22022177
225	0xbdf20188	-0.11816698
226	0x3d306e7f	0.043074127
227	0xbebf13eb	-0.37319884
228	0xbd08b086	-0.03337147
229	0x3de23204	0.11044696
230	0xbedef165	-0.43543544
231	0x3e389ba3	0.1802812
232	0xbe09a6a9	-0.13442482
233	0xbe2aa7ef	-0.16665624
234	0xbdfe2c48	-0.1241079
235	0xbdd4b85e	-0.10386728
236	0xbdb95793	-0.090499066
237	0xbe430022	-0.1904302
238	0xbe0422e7	-0.12903939
239	0xbe60bc92	-0.21946934
240	0xbeb00288	-0.3437693
241	0xbdc8c5cb	-0.09803351
242	0x3ef4825e	0.47755712
243	0xbdc3439b	-0.09534379
244	0x3ec719d6	0.388869
245	0x3e8f3553	0.2797037
246	0xbe45948f	-0.19294952
247	0xbe3f738b	-0.1869642
248	0xbe243954	-0.16037494
249	0x3db9bda2	0.09069373
250	0xbed6d615	-0.41960207
251	0xbe428700	-0.18996811
252	0xbe28ec74	-0.1649645
253	0x3eb93bac	0.3617834
254	0x3e3da59f	0.1852021
255	0xbe7d6da1	-0.24748851

linear2.weight f4 [3, 256]
0	0x3e5c752f	0.21529077
1	0xbcb2066c	-0.021731578
2	0xbf07a936	-0.5299257
3	0x3ebc1856	0.36737317
4	0xbc217bd4	-0.009856183
5	0xbccbfc24	-0.024900503
6	0xbf4b419f	-0.79397005
7	0xbe1a5788	-0.15072453
8	0xbd92ef7b	-0.071745835
9	0xbda6f7e9	-0.08152754
10	0xbf4e81ba	-0.806667
11	0xbd698f22	-0.057021268
12	0x3da1db36	0.07903139
13	0xbde24c9a	-0.11049767
14	0xbd81016c	-0.06299099
15	0x3ea835e4	0.32853615
16	0xbe5bfa5f	-0.21482228
17	0x3ee4e0e1	0.4470282
18	0xbe79cabe	-0.24393746
19	0xbec1bff3	-0.37841758
20	0xbd8e1558	-0.06937665
21	0x3e2a6ca3	0.16643004
22	0xbde1d143	-0.11026242
23	0xbd8c0e96	-0.068387195
24	0xbe41a678	-0.18911159
25	0xbda6d4d5	-0.08146063
26	0xbc8d434e	-0.017244007
27	0xbcce7d60	-0.025206268
28	0xbd33393e	-0.043755762
29	0xbe379d36	-0.17931065
30	0xbc684cca	-0.014178464
31	0xbe966f6f	-0.29381892
32	0x3cb5365a	0.022120643
33	0x3e992a86	0.29915255
34	0x3c2907a8	0.010316767
35	0x3eabfb86	0.33590335
36	0xbe17ef65	-0.14837416
37	0xbe2468e7	-0.16055642
38	0xbd5b507f	-0.053543564
39	0x3e59fb0e	0.21287176
40	0xbde89a1a	-0.113575175
41	0x3ea08ab9	0.31355837
42	0xbe4caccd	-0.19987793
43	0xbc84e280	-0.016221285
44	0x3ea5b097	0.3236129
45	0xbc99430c	-0.018708728
46	0xbc3ea452	-0.011635857
47	0xbaf1cc98	-0.0018447815
48	0x3c5bec44	0.013423029
49	0x3c522d60	0.012828201
50	0xbe4ba112	-0.19885662
51	0xbdf41d9d	-0.11919711
52	0x3eb11d63	0.34592733
53	0x3c439f13	0.011939782
54	0x3e5f3385	0.21796997
55	0xbdfde311	-0.12396825
56	0xbec8def8	-0.39232612
57	0x3e539990	0.20664048
58	0x3ddf95ad	0.1091722
59	0x3e16d546	0.14729795
60	0xbe993247	-0.2992117
61	0x3c71cd56	0.014758429
62	0xbe9bd2eb	-0.30434355
63	0x3e11505a	0.14190808
64	0x3e0708b2	0.13186911
65	0x3c45c627	0.012071169
66	0xbeb40b3d	-0.35164824
67	0xbea33390	-0.31875277
68	0xbd639c72	-0.05556912
69	0xbe0f26e1	-0.13979675
70	0xbdbc2fba	-0.091887906
71	0x3eb281dd	0.34864703
72	0x3da024d1	0.07819522
73	0x3eaed975	0.34150282
74	0x3ea2d033	0.31799468
75	0x3ebd1c7e	0.369358
76	0x3e446e42	0.19182685
77	0xbe8e7dca	-0.27830344
78	0xbdb6bd2f	-0.08922803
79	0xbeff4fa9	-0.49865463
80	0xbe6b56dd	-0.22982354
81	0xbe6386ed	-0.22219439
82	0x3d477556	0.048695885
83	0xbe8b35b9	-0.27189425
84	0xbe465139	-0.19366921
85	0xbe1d198a	-0.15341774
86	0xbe97cb96	-0.2964751
87	0xbdb15cdd	-0.086602904
88	0xbef39405	-0.47573867
89	0xbb337516	-0.002738302
90	0xbf25a4ae	-0.64704406
91	0xbc89dfbe	-0.016830321
92	0x3f0e19c8	0.5550809
93	0xbe5cbca1	-0.21556331
94	0x3e4ed45f	0.201982
95	0x3e183e9f	0.14867638
96	0xbd5fce4d	-0.054640103
97	0x3dd4f890	0.10398972
98	0x3ed46001	0.41479495
99	0x3ebb5de8	0.36595082
100	0xbcfd31f4	-0.030907609
101	0xbdff5f31	-0.12469328
102	0xbf04c9a4	-0.5187018
103	0xbf09b3ee	-0.53790176
104	0x3ee2cc33	0.44296417
105	0xbdf0b30d	-0.11752901
106	0x3df45b0d	0.11931429
107	0xbdf6a939	-0.120439954
108	0xbdd32565	-0.10309867
109	0xbe11b26e	-0.14228222
110	0xbeb172cd	-0.346579
111	0x3eb4ff38	0.35350966
112	0x3e594874	0.21219045
113	0xbdc5511a	-0.096346095
114	0x3eb649b5	0.3560311
115	0x3d72bd0d	0.059262324
116	0x3e883297	0.26601097
117	0x3eae21a0	0.3401003
118	0x3c78f24d	0.015194488
119	0xbf06bb4f	-0.5262956
120	0x3ea4d034	0.32190096
121	0xbe92882a	-0.2861951
122	0xbef6550f	-0.4811177
123	0x3cfe64b2	0.031053875
124	0xbeb114cd	-0.34586182
125	0x3dabc6af	0.08387505
126	0x3ad49e22	0.0016221444
127	0xbccc2b8c	-0.024923109
128	0x3db5c6ac	0.08875784
129	0x3e908b16	0.28231114
130	0x3ea1fdb0	0.3163886
131	0xbe2a7cc1	-0.16649152
132	0x3e912ed4	0.2835604
133	0xbe63f516	-0.22261462
134	0xbe83a6fd	-0.2571334
135	0xbd7c94d8	-0.061665386
136	0xbe2549d3	-0.16141443
137	0xbd419b61	-0.04726732
138	0x3d9f25c7	0.07770877
139	0xbf1848b2	-0.59485924
140	0x3e77e456	0.24208197
141	0xbf1a5754	-0.602895
142	0x3e28f35e	0.16499087
143	0xbee49ca4	-0.44650757
144	0x3e819598	0.25309443
145	0xbcc369ed	-0.02385422
146	0x3e1cd6eb	0.1531636
147	0xbf0eab7b	-0.5573041
148	0xbed6ca33	-0.4195114
149	0xbe693bff	-0.22776793
150	0xbd32f6dc	-0.043692455
151	0x3e30e12e	0.17273399
152	0xbdacd5c9	-0.08439214
153	0xbe4715a2	-0.19441846
154	0xbd73a0a3	-0.059479367
155	0x3c7f5b71	0.015585766
156	0xbd0d4b28	-0.034495503
157	0xbe4e07a6	-0.20120105
158	0x3e9fe9d4	0.31233084
159	0x3cc3e43e	0.023912545
160	0xbecdb55c	-0.4017743
161	0xbcfca13c	-0.030838601
162	0x3eaa322c	0.33241403
163	0xbcd7607c	-0.026291125
164	0x3e8d3b99	0.27584532
165	0x3e0927f3	0.13394146
166	0xbd5afa52	-0.05346138
167	0xbcd398c7	-0.025829686
168	0xbed6a8a6	-0.41925544
169	0x3dac2d46	0.08407073
170	0x3ed26236	0.41090554
171	0x3e7cea40	0.24698734
172	0xbc9c33a9	-0.019067602
173	0x3a9bd825	0.0011889978
174	0xbd74fb10	-0.059809744
175	0xbe8e7d9f	-0.27830216
176	0xbd7c1eb8	-0.061552733
177	0xbe52f7d1	-0.20602347
178	0x3e9772c8	0.2957976
179	0xbeebb950	-0.4603982
180	0xbd15830a	-0.03650192
181	0xbdcd1d81	-0.10015393
182	0xbea0231e	-0.31276792
183	0xbd807afa	-0.06273456
184	0xbcd41f95	-0.025893966
185	0xbec8730a	-0.39150268
186	0xbec93609	-0.39299038
187	0x3ed59e1b	0.41722187
188	0xbe4610d9	-0.19342364
189	0x3d91b519	0.0711462
190	0x3eaa7f6b	0.33300337
191	0x3ea88525	0.3291408
192	0xbd8cf4e2	-0.06882645
193	0x3e5ea1a2	0.21741346
194	0xbe3cfcea	-0.18455854
195	0xbc60de50	-0.013724878
196	0x3eb25de9	0.34837273
197	0x3e5091ce	0.2036812
198	0xbeeee0c6	-0.46655864
199	0xbed126e6	-0.4084999
200	0x3b7e21e2	0.003877752
201	0xbd1b09af	-0.037851032
202	0x3cea59d0	0.028607279
203	0xbd66bd3c	-0.05633281
204	0xbe13f0b4	-0.1444729
205	0x3f0e5125	0.55592567
206	0x3e738fb8	0.23785293
207	0xbf1590a9	-0.5842386
208	0xbe87d737	-0.26531383
209	0x3ea465d3	0.32108936
210	0x3e7df298	0.24799573
211	0x3da2fd8b	0.07958516
212	0x3db77a6d	0.08958898
213	0x3baa64b1	0.0051999916
214	0xbe0130c3	-0.12616257
215	0x3e311774	0.17294103
216	0x3de4233b	0.11139532
217	0x3e749d90	0.2388823
218	0xbd78b53b	-0.06071971
219	0x3ebf20ff	0.37329862
220	0xbd89000a	-0.066894606
221	0xbeea4f67	-0.45763704
222	0xbe402231	-0.18763043
223	0xbd131ff2	-0.035919137
224	0x3e3027b0	0.1720264
225	0x3db8e9e2	0.090289846
226	0xbdb96730	-0.090528846
227	0xbde5e526	-0.11225347
228	0x3e104df4	0.14092237
229	0xbf2d8c70	-0.67792416
230	0xbe4804d5	-0.19533093
231	0x3ead7be4	0.33883584
232	0xbe7b60d2	-0.24548653
233	0xbe4a7909	-0.19772734
234	0xbcb9fdf4	-0.022704102
235	0xbd2b1421	-0.041767243
236	0xbe866fc3	-0.26257142
237	0x3d50b090	0.050949633
238	0xbe359f28	-0.17736495
239	0xbc88e5c9	-0.016711133
240	0xbd927920	-0.07152009
241	0xbe33a3b1	-0.17542912
242	0x3ef53fe2	0.479003
243	0xbea622a2	-0.32448298
244	0x3ed77828	0.4208386
245	0x3e7343f3	0.2375639
246	0xbe2205bf	-0.15822504
247	0xbe921cf4	-0.28537714
248	0xbeb279dd	-0.348586
249	0x3d0da70c	0.034583136
250	0xbe9181ad	-0.28419247
251	0xbf011139	-0.50416905
252	0xbe846564	-0.25858605
253	0x3eb88b1c	0.36043632
254	0x3e938e55	0.28819528
255	0x3e4ada00	0.19809723

linear2.bias f4 [3]
0	0x3e5eda25	0.21762903
1	0x3d38d00b	0.04512028
2	0x3d73d1a9	0.05952612
